artifacts/clothing-classifier.pth (torch, 130416 bytes, 4 tensors)

weight f4 [16, 1, 3, 3]
0	0x3e66c743	0.2253695
1	0x3e57f3a7	0.2108904
2	0xbeaf6377	-0.34255573
3	0x3e95d313	0.292626
4	0xbe0782a5	-0.1323343
5	0xbd0a7e85	-0.033812065
6	0xbed38900	-0.4131546
7	0x3dab4e4d	0.08364544
8	0x3e957530	0.2919097
9	0xbefc9c58	-0.4933803
10	0x3eb57bef	0.35446116
11	0xba4efe89	-0.0007896205
12	0x3dddf864	0.108383924
13	0x3dd5adbb	0.10433527
14	0x3a343728	0.0006874674
15	0xbe17e908	-0.14834988
16	0x3e9cb7b1	0.30608895
17	0xbe43f1d4	-0.19135219
18	0xbdd4eb82	-0.10396482
19	0x3e2b9e66	0.16759643
20	0xbbf70240	-0.00753811
21	0xbe8af8e7	-0.27143022
22	0xbeb68b34	-0.3565308
23	0x3e5e374b	0.2170078
24	0xbe87c45f	-0.26517007
25	0xbe810cf1	-0.25205186
26	0xbc9d66ea	-0.019214112
27	0xbe1b8eb0	-0.1519115
28	0xbc7059c0	-0.014669836
29	0xbec5de79	-0.38646296
30	0x3eca49a1	0.395093
31	0xbf07727d	-0.5290907
32	0x3ea7419e	0.3266725
33	0x3cf93cef	0.030424563
34	0xbeb8732a	-0.36025363
35	0x3eaa5d5d	0.33274356
36	0xbe712416	-0.23548922
37	0x3ea5c05b	0.32373318
38	0xbe764059	-0.24047984
39	0xbea652fd	-0.3248519
40	0x3eab14b4	0.33414233
41	0xbe96faf6	-0.29488343
42	0xbda72727	-0.081617646
43	0x3ed03618	0.4066627
44	0xbcb65bd4	-0.022260584
45	0xbd9093e2	-0.070594564
46	0x3ebf04fe	0.37308496
47	0x3e0bf9dc	0.13669533
48	0x3efb3a97	0.49068138
49	0xbf14f333	-0.5818359
50	0xbecafc34	-0.3964554
51	0xbe4ad3e0	-0.19807386
52	0xbf1cc743	-0.6124155
53	0x3f382cc7	0.71943325
54	0x3d8f297d	0.06990335
55	0x3ecf9fbd	0.40551558
56	0x3e1249f3	0.14286022
57	0x3e8deca1	0.27719596
58	0x3eca97dc	0.39568985
59	0xbf1a9f42	-0.6039926
60	0xbcbc97e2	-0.023021642
61	0xbf0ee892	-0.55823624
62	0xbe2b5925	-0.16733225
63	0xbb3ce65f	-0.0028823835
64	0x3e5ef7d8	0.21774232
65	0xbe8fe8fa	-0.28107435
66	0x3f056c41	0.5211831
67	0xbccaf904	-0.024776943
68	0xbef68882	-0.48151022
69	0xbea4ed51	-0.32212308
70	0x3f0e5b23	0.55607814
71	0xbc0051a9	-0.007831969
72	0x3f247bf7	0.64251655
73	0xbed79cd7	-0.42111847
74	0xbed93096	-0.4241988
75	0xbee05d9b	-0.43821415
76	0xbf15b215	-0.58474857
77	0x3df615fd	0.12015913
78	0x3e9f4af1	0.31111863
79	0x3f08a7c2	0.5338098
80	0xbdb98791	-0.0905906
81	0xbee8a5d6	-0.45439023
82	0x3ed3095d	0.4121808
83	0x3d72db2a	0.059291042
84	0xbe21eaa9	-0.15812172
85	0xbe4fa5aa	-0.2027804
86	0x3f177685	0.5916522
87	0xbf03072b	-0.5118281
88	0xbe7b0056	-0.24511847
89	0x3f1e8d3f	0.61934274
90	0x3e6aeee0	0.22942686
91	0xbebec6cc	-0.37261045
92	0x3e056efe	0.13030621
93	0x3f146aff	0.57975763
94	0xbf023d1b	-0.5087449
95	0xbe51eeb0	-0.20501208
96	0x3f0eecc6	0.5583004
97	0xbea4b9a2	-0.32172877
98	0xbe800adc	-0.25008285
99	0xbe7c59b2	-0.24643591
100	0xbe6d2b12	-0.23160961
101	0x3ec03ae5	0.37544933
102	0xbeb66f7d	-0.35631934
103	0xbf63acea	-0.8893572
104	0xbdfbc094	-0.12292591
105	0xbdc295ef	-0.09501254
106	0xbf074028	-0.5283227
107	0xbda09c43	-0.078423046
108	0xbeb36153	-0.3503519
109	0xbe52e5e2	-0.20595506
110	0x3f0a7f67	0.5410065
111	0x3da892b0	0.082311034
112	0x3d7c1cf8	0.061551064
113	0xbed03cd3	-0.40671405
114	0xbe2ce2aa	-0.1688334
115	0xbe1a4778	-0.15066326
116	0x3dd2b8ba	0.1028914
117	0xbf60d44f	-0.8782396
118	0xbf874c5e	-1.057018
119	0xbf459e39	-0.77194554
120	0xbf92b12a	-1.1460316
121	0xbffe245e	-1.9854848
122	0xbfa0e42a	-1.256963
123	0xbf3701d8	-0.7148719
124	0xbf9ca19b	-1.2236818
125	0xbf35a4f5	-0.7095483
126	0xbeaef876	-0.34173936
127	0xbe754e1f	-0.23955582
128	0x3f053712	0.52037156
129	0xbf090d51	-0.53535944
130	0x3ed02c64	0.40658867
131	0x3e496ff9	0.1967162
132	0xbf036947	-0.51332515
133	0x3f1ab6ed	0.6043537
134	0xbd9ecb29	-0.077535935
135	0xbdf7ec23	-0.121055864
136	0xbf12cd1e	-0.57344234
137	0xbeb80f63	-0.3594924
138	0x3ebc0edb	0.36730084
139	0xbcc547bc	-0.024082057
140	0x3edfc78a	0.43706924
141	0xbe975579	-0.29557398
142	0x3f117cfc	0.56831336
143	0xbe065071	-0.13116623

bias f4 [16]
0	0xbdd7818e	-0.105227575
1	0xbd598e13	-0.05311401
2	0x3e0e4027	0.1389166
3	0x3d9baffa	0.07601924
4	0xbc78de23	-0.01518968
5	0xbd02c0b8	-0.031922072
6	0xbd2b748b	-0.04185919
7	0xbdfe2106	-0.124086425
8	0x3c664b19	0.014055991
9	0xbdff9915	-0.1248037
10	0x3ceff64c	0.029292248
11	0x3da8dc9a	0.082452014
12	0x3de41d51	0.11138404
13	0x3eb84d87	0.3599665
14	0xbd4d9cdc	-0.05019842
15	0xbc65dce5	-0.014029716

weight f4 [10, 3136]
0	0xbc9c9324	-0.01911313
1	0x3b9deb82	0.0048193345
2	0xbdb70baa	-0.089377716
3	0xbd22ceaa	-0.03974787
4	0x3d9205e9	0.071300335
5	0x3c9732d0	0.018456846
6	0xbdae811e	-0.08520721
7	0xbd8368c5	-0.064164676
8	0x3d80e7bd	0.062942006
9	0x3d80e978	0.06294531
10	0x3dcc2ee2	0.0996988
11	0x3d3553e1	0.044269446
12	0x3ca50ba8	0.02014716
13	0xbc013936	-0.007887175
14	0xbd633a85	-0.05547573
15	0xbd0d6618	-0.034521192
16	0x3d403f12	0.04693515
17	0xbcf86b64	-0.030324645
18	0xba83b15c	-0.0010047364
19	0xbc812694	-0.015765466
20	0xbc79c476	-0.015244594
21	0x3bed6313	0.0072444766
22	0x3d0ae537	0.033910003
23	0x3b0594e7	0.0020382942
24	0x3c937947	0.018002165
25	0x3d974137	0.073854856
26	0x3e1e7a4d	0.15476342
27	0xbc89741c	-0.016778998
28	0xbc539f52	-0.012916403
29	0xb94c3cb2	-0.00019477567
30	0x3c5dc8da	0.013536656
31	0xbc927f9f	-0.01788312
32	0xbd495f01	-0.04916287
33	0x3cb0180f	0.021495847
34	0x3b3ebdc5	0.002910481
35	0xbcf5b423	-0.029993122
36	0x3c0a1312	0.008427398
37	0x3d38e3b6	0.045139037
38	0x3bce079b	0.0062875277
39	0x3d538f66	0.051650427
40	0x3d091611	0.03346831
41	0xbcb1d937	-0.021710021
42	0x3d88b3e6	0.06674938
43	0x3d04bf54	0.032409027
44	0x3c907555	0.017634073
45	0x3d0f8d3b	0.035046797
46	0x3cc2ad17	0.023764176
47	0xbd16dde1	-0.036832694
48	0x3c458f00	0.01205802
49	0xbbf22f80	-0.0073909163
50	0x3da3587d	0.07975862
51	0x3db51502	0.088418975
52	0x3cf794a5	0.030222246
53	0x3d123416	0.035694204
54	0x3ca712a9	0.02039464
55	0x3dd82fa0	0.10555959
56	0x3db79fef	0.08966052
57	0x3d5ca517	0.05386838
58	0x3d9ae610	0.07563412
59	0x3db17210	0.08664334
60	0x3d0d2102	0.034455307
61	0x3cf79247	0.030221118
62	0x3c521ac4	0.012823764
63	0x3bb85707	0.005625609
64	0x3d064559	0.03278098
65	0x3dad81ea	0.08472045
66	0x3d9aa910	0.07551777
67	0x3d5d3322	0.054003842
68	0xbb808266	-0.0039217947
69	0xbcd77b27	-0.02630384
70	0x3bc994ac	0.0061517563
71	0x3d24fb7a	0.04027889
72	0x3d9acbd7	0.075584106
73	0x3d3617e7	0.04445639
74	0x3d859f8f	0.06524574
75	0x3ca53313	0.020165956
76	0xbc568f0e	-0.01309563
77	0xbc954bbe	-0.018224593
78	0xbc160b37	-0.009157947
79	0xbc919b43	-0.01777423
80	0xbd431bc9	-0.04763392
81	0x3ccff2b0	0.025384277
82	0x3d4b6a68	0.049662024
83	0xbdb7c3c4	-0.08972886
84	0xbb4b676c	-0.0031036986
85	0xbcb3a684	-0.021929987
86	0xbcb43f73	-0.022002911
87	0xbcf7b9f3	-0.030240035
88	0xbcdd8f56	-0.027045887
89	0x3c4ec28b	0.012619625
90	0xbcaf22f5	-0.021378973
91	0xbd8039a4	-0.06260994
92	0xbc893c45	-0.016752372
93	0xbd7a000c	-0.0610352
94	0xbdcc0fc9	-0.09963948
95	0xbdbaf4fe	-0.0912876
96	0xbb4e1586	-0.0031445934
97	0xbe021c83	-0.12706189
98	0xbb920780	-0.0044564605
99	0xbd4c95b9	-0.049947474
100	0xbc761287	-0.015019066
101	0xbda52e8f	-0.08065521
102	0xbd3665e9	-0.044530783
103	0x3ca6611f	0.020309983
104	0x3b78e738	0.0037979614
105	0xbbc8ab96	-0.0061239703
106	0xbcd0eeaa	-0.025504429
107	0xbd1443f5	-0.03619762
108	0xbdc9bbf4	-0.09850302
109	0xbdbfbdb1	-0.09362353
110	0xbd8f4a94	-0.069966465
111	0xbded8d47	-0.11599212
112	0xbd81f160	-0.06344867
113	0x3c17641f	0.009240179
114	0x3d5493f8	0.051898926
115	0xbc902df5	-0.017600039
116	0xbd0e1c71	-0.034695093
117	0x3b5c94c3	0.0033658005
118	0xbb0214eb	-0.0019848894
119	0xbcc77454	-0.024347462
120	0xbc144140	-0.00904876
121	0xbc12b142	-0.008953394
122	0xbdd1d126	-0.1024497
123	0xbc6150b2	-0.013752149
124	0xbd7fecce	-0.062481694
125	0xbde874f4	-0.11350432
126	0xbda90881	-0.08253575
127	0xbd6c7c87	-0.057735946
128	0x3c1596fd	0.009130237
129	0xba892e6f	-0.0010466109
130	0x3babc10b	0.0052415184
131	0x3b68f6af	0.0035547426
132	0xbd041a20	-0.032251477
133	0xbd63a2eb	-0.055575293
134	0x3b3776cb	0.002799439
135	0xbc70d192	-0.014698403
136	0xbdb085dc	-0.08619282
137	0xbd836fe4	-0.06417826
138	0xbd4f99a0	-0.050683618
139	0xbda56b7a	-0.0807714
140	0xbd4484ff	-0.047978397
141	0xbd7c90f4	-0.061661676
142	0xbd17f2b7	-0.037096705
143	0x3c6bd6cf	0.014394476
144	0x3c2f871a	0.010713363
145	0x3cea6296	0.028611463
146	0xbc007fb7	-0.00784295
147	0xbd190ec0	-0.037367582
148	0xbc1324b2	-0.008980917
149	0xbc8904c0	-0.016725898
150	0x3b97c838	0.004632022
151	0xbd405426	-0.04695525
152	0xbda3e6b3	-0.08002987
153	0xbc66b281	-0.014080645
154	0xbd12c476	-0.03583189
155	0xbd76af5e	-0.060225837
156	0x3d38f863	0.045158755
157	0x3cf561fe	0.029953953
158	0x3d25bef1	0.0404653
159	0x3c91581f	0.017742215
160	0xbc4c2479	-0.012459868
161	0xbc8f03ea	-0.017457921
162	0x3c220555	0.009888967
163	0x3d277371	0.040881578
164	0x3af23fb0	0.0018482115
165	0xbc351634	-0.011052657
166	0xbd6613fb	-0.0561714
167	0xbaeab528	-0.0017906772
168	0xbbdf89fa	-0.006821868
169	0xbdb0116f	-0.08597075
170	0xbd3f4209	-0.046693835
171	0x3d52ae7a	0.051435925
172	0x3cf7c12b	0.030243477
173	0x3cd6e80e	0.0262337
174	0x3ba9e382	0.0051845917
175	0xbd1da456	-0.0384868
176	0x3a6e3a7b	0.0009087694
177	0x3d5f08b6	0.054451667
178	0x3d44d624	0.048055783
179	0xbbd3ea20	-0.006467119
180	0xbdab3dd7	-0.083614044
181	0x3baaa9de	0.005208238
182	0xbc99e0fb	-0.018784037
183	0xbdb5be44	-0.08874181
184	0xbd2f809b	-0.042847257
185	0xbdd5dfe9	-0.10443098
186	0xbd003db9	-0.031308863
187	0xbd312906	-0.043252014
188	0xbbfede76	-0.0077779843
189	0x3c52d692	0.01286854
190	0xbc64438d	-0.013932121
191	0x3d5931a3	0.053025853
192	0x3d0d74ae	0.034535103
193	0xbda315a1	-0.0796311
194	0xbda2aaca	-0.07942732
195	0xbd5252d0	-0.051348507
196	0xbca34379	-0.019929634
197	0x3ca2c7fb	0.019870749
198	0xbdc121fd	-0.09430311
199	0x3d26797b	0.040643197
200	0x3cb4d539	0.022074329
201	0x3b0d7db5	0.002158982
202	0xbda4587c	-0.080246896
203	0xbc5eaf01	-0.013591529
204	0x3d26852d	0.04065435
205	0x3d5b2b48	0.053508073
206	0x3dce0836	0.1006016
207	0x3b863d22	0.004096643
208	0x3ddc30ad	0.10751472
209	0x3c541767	0.012945033
210	0xbd26fb0f	-0.040766772
211	0x3d8cbe3f	0.06872224
212	0xb9b6cf9c	-0.00034868426
213	0x3bcea664	0.0063064564
214	0xbcd9c622	-0.026583735
215	0x3c1b1811	0.009466187
216	0x3a17c798	0.00057899347
217	0xbc9eb823	-0.019374913
218	0x3cccc38a	0.024995584
219	0x3d27a33f	0.040927168
220	0x3daf477c	0.085585564
221	0x3dd36232	0.10321464
222	0x3e22f4d4	0.15913707
223	0xbc2f71f1	-0.010708318
224	0xbc8a7cbd	-0.016905183
225	0x3c4139fd	0.011793611
226	0x3c754069	0.01496897
227	0xbce26e9e	-0.027640637
228	0x3bea6c74	0.007154042
229	0xbd87db67	-0.066336446
230	0xbafbcbd8	-0.001921053
231	0xbca60f01	-0.020270826
232	0x3cc908c1	0.024540307
233	0x3d576a54	0.052591637
234	0xbd3345fb	-0.04376791
235	0xbc9db889	-0.019253032
236	0xbcfe0abe	-0.031010982
237	0xbd80130b	-0.06253632
238	0x3da73ff3	0.08166494
239	0x3c084392	0.008316891
240	0x3d420e66	0.047377013
241	0x3d406aa6	0.046976708
242	0x3b9078d9	0.0044089374
243	0xbb7dcb10	-0.003872577
244	0x3b78915f	0.0037928445
245	0xbd834232	-0.0640911
246	0x3caf97af	0.021434633
247	0x3d4c85f0	0.04993242
248	0x3c9c74ab	0.0190986
249	0x3cb3af57	0.021934194
250	0x3d3769be	0.044778578
251	0xbc42a2d6	-0.011879643
252	0x3db49163	0.08816793
253	0x3d81868d	0.06324492
254	0x3debc3f1	0.11511982
255	0xbc16d020	-0.009204894

bias f4 [10]
0	0x3cda49ac	0.026646458
1	0xbc10bbb9	-0.008833819
2	0x3c025d88	0.00795687
3	0xbc9f1cad	-0.019422853
4	0xbd561b0e	-0.052271895
5	0x3d61456b	0.054997843
6	0xbb98c455	-0.0046620765
7	0xbbdb044d	-0.0066838623
8	0x3dc9f090	0.09860337
9	0xbce41f26	-0.027846884
